assets/models/custom_model.tflite (tflite, 888455 bytes, 12 tensors)

sequential/conv2d/BiasAdd/ReadVariableOp f4 [32]
000000 7a 5b 53 bc a3 38 cd 3b fb 7f 37 be 11 16 74 be
       -0.012900228 0.006262855 -0.17919914 -0.23836543
000010 1a 40 ce 3d a7 ca 46 3d 36 da b5 bb 25 d7 aa 3c
       0.1007082 0.048533108 -0.0055496944 0.020854542
000020 67 e2 09 bd db 0f 09 bb 94 95 20 3d fc 0c 13 3e
       -0.03366318 -0.0020913992 0.03920515 0.14360422
000030 18 a5 be bb 11 5f e4 bc 13 ba 57 3b 5e e1 0f 3e
       -0.0058180206 -0.027877362 0.0032917305 0.14050815
000040 4c 10 10 bc f4 e4 fd bb e4 9d dd 3d 86 92 c5 3d
       -0.008792948 -0.0077482406 0.10821131 0.09647088
000050 2b 4f 24 3d da 1f 9b 3c 04 b6 02 bd 21 08 d9 bb
       0.040114563 0.018936086 -0.031911865 -0.0066232835
000060 e8 20 34 3c 7f 2d 30 bd 49 bb ed 3b 67 2f b6 3d
       0.010994174 -0.04301214 0.007254992 0.0889576
000070 a6 ac c2 bc 28 90 3f be 32 d9 6a bd 7d 83 d4 3d
       -0.023763966 -0.18707335 -0.05733604 0.10376642

sequential/conv2d_1/BiasAdd/ReadVariableOp f4 [32]
000000 72 de e6 3d 16 66 4b be 4a fa 2f 3d 78 7c 01 bc
       0.11272897 -0.19863161 0.042963304 -0.007903211
000010 be 10 34 be 1e 32 ba 3d f7 fa 4c be ca 43 23 3e
       -0.17584512 0.0909159 -0.2001761 0.15943828
000020 be fd fa 3b 51 65 a7 bd 26 88 9c bd 26 09 09 3e
       0.007659643 -0.081736214 -0.07643156 0.13382396
000030 84 0f db 3d 85 b7 9f bd ba c2 42 bd 92 b8 f3 3d
       0.10696319 -0.077986754 -0.047548987 0.11900438
000040 c0 48 a6 bd 3f d5 7f 3d d9 55 90 3c b6 81 7d bd
       -0.08119345 0.062459227 0.01761906 -0.06189128
000050 86 d4 2f bd 62 30 27 bd 9e 23 bd 3c d6 10 6a 3e
       -0.042927288 -0.040817626 0.023088273 0.22857985
000060 3f df b4 bc 39 b7 f5 bd 8e 66 95 bc 97 2b 51 3e
       -0.022079108 -0.119978376 -0.018237378 0.20426784
000070 4d 20 31 be ac 4a d6 bd ef a7 94 3d 21 97 b0 bc
       -0.17297478 -0.10463461 0.07258593 -0.021556439

sequential/conv2d_2/BiasAdd/ReadVariableOp f4 [32]
000000 9a 3f 4d bd c9 ca 30 bd 57 b8 91 bd a7 b7 3d bd
       -0.050109483 -0.04316214 -0.07115238 -0.046317723
000010 a6 f2 50 bc 77 d8 d7 3d 30 c6 22 3e 74 e2 33 be
       -0.012753164 0.10539334 0.15895915 -0.17566854
000020 cf 0e 06 3e 5a 9a 9f bb d4 9a 19 be 6a 55 71 3d
       0.13091587 -0.004870695 -0.15000468 0.058919348
000030 72 76 77 3e 93 19 cf 3d dd d5 18 be 6c 2a 03 3e
       0.24166277 0.101123 -0.14925332 0.12809151
000040 fe 9f fc bd 52 a7 3b 3e fd d3 19 3e dd 72 54 3e
       -0.123352036 0.18325546 0.15022273 0.20746942
000050 bf d0 e1 b9 97 40 31 3d 88 5d 05 bd 58 17 86 3c
       -0.00043070872 0.04327449 -0.0325599 0.016368553
000060 44 f0 ce bc 3c 7b c6 bd ba a7 51 3e 80 7d ac 3d
       -0.025261052 -0.09691474 0.20474139 0.08422375
000070 47 50 2f bb 85 7e 29 be 2b 3a 3b 3c d3 f9 39 be
       -0.002675073 -0.1655217 0.011427443 -0.18161707

sequential/conv2d/Conv2D f4 [32, 3, 3, 3]
000000 e7 37 29 3d b7 74 06 be 4d 52 19 ba 19 6c 42 3d
       0.04131308 -0.1313046 -0.00058487506 0.04746637
000010 14 1c 1b 3d 5f d0 ae bd ab ff 8c bd d9 2b 48 bb
       0.037868574 -0.085358374 -0.06884702 -0.0030543713
000020 a7 ef 33 3c b5 db b9 bd d0 6c c8 3b 67 c5 11 be
       0.010982431 -0.09075109 0.006116487 -0.1423546
000030 52 ff e8 bd 68 0c 6b 3d 2a 5f 97 3d 70 49 32 bd
       -0.113768235 0.05738488 0.07391198 -0.043527067
000040 d9 99 18 bd 27 05 f4 bd 5c 70 00 be c3 f1 9f bd
       -0.037256096 -0.11915045 -0.12542862 -0.07809784
000050 84 eb 89 3d a0 c5 e4 bc e5 bf 88 3d 19 b2 9d bd
       0.06734374 -0.027926266 0.06677226 -0.07699985
000060 a1 1a c5 3d 1c 57 05 bc 0d e6 14 be 72 5f e1 bd
       0.0962422 -0.008138444 -0.14540882 -0.11004533
000070 15 78 0f be e8 c6 c3 bd c6 d4 b9 3d a6 4e e2 3d
       -0.14010651 -0.09559423 0.090737864 0.11050157
000080 1a 9c 5b 3e 4a e6 eb 3d f7 d0 53 3d 15 f1 d3 bb
       0.21446267 0.115185335 0.051712956 -0.006467948
000090 27 ea 72 be 67 3b a9 bd f6 06 98 bd 55 9a 0c be
       -0.23722135 -0.08263283 -0.07423203 -0.13730748
0000a0 8b 18 4f bb 8d 78 03 3e a8 d1 c1 3d 57 61 4c 3e
       -0.0031600322 0.12838955 0.09463817 0.19959007
0000b0 4c 2e 61 3e d3 0b 85 be fe 4f 46 be cb 8c 62 be
       0.21990317 -0.25985584 -0.19366452 -0.22124021
0000c0 b5 4e d9 bd e9 05 d6 bc 25 d3 67 ba dd c2 c1 bc
       -0.10610715 -0.026125865 -0.00088434137 -0.023652488
0000d0 8b 37 3d 3e 16 dc 87 3e 90 70 96 bd 8b ab 46 ba
       0.18478219 0.265351 -0.07345688 -0.00075786625
0000e0 7a 51 71 bc 7f 84 1e be 96 c5 fc bd ec 2d 5b bd
       -0.014728898 -0.15480231 -0.12342374 -0.05351059
0000f0 da 78 e2 bc b1 32 d9 bc 58 9c 0b be 34 8b 58 3d
       -0.027645517 -0.02651343 -0.13633859 0.05286713
000100 45 a3 0c 3e be 34 06 3d 08 72 cf bc 37 13 19 3e
       0.13734157 0.032765143 -0.025322929 0.14948736
000110 67 91 22 3e 65 8a 61 be a9 46 14 3d 1d ce c6 bd
       0.15875779 -0.2202545 0.0362002 -0.09707282
000120 7b 6c b6 3d 2c c6 50 3c 5e a7 1c bd b5 cd 5d 3d
       0.0890741 0.01274256 -0.03824555 0.054151256
000130 5a a2 96 3d e2 0c 53 bd 7c 21 ba bd 72 2f 34 ba
       0.07355185 -0.051525958 -0.09088418 -0.0006873525
000140 57 d0 a5 bc ec b9 76 3d 42 71 2f 3e ea dd 5a bd
       -0.020240946 0.060235903 0.17133048 -0.05343429
000150 0c 23 0c 3d 76 b2 49 3e 2d d7 3b bb c6 e3 d7 bd
       0.03421311 0.19696984 -0.002866219 -0.10541491
000160 19 f9 9d 3d eb 87 8c 3d 51 91 45 3d 89 e6 ee 3d
       0.07713527 0.06861862 0.048234288 0.11665065
000170 cf 6b 34 3e be d8 cf 3d d9 82 2f 3e 28 4b 3b 3d
       0.1761925 0.10148762 0.17139758 0.04572597
000180 2a 1e c7 3d b9 d1 65 bd 43 d0 af 3c 65 67 2b 3c
       0.0972255 -0.05610821 0.021461612 0.010461663
000190 93 58 ae 3c 23 9b f7 bc f4 01 a6 3d 21 7f 34 3d
       0.02128247 -0.030225342 0.08105841 0.044066552
0001a0 91 8c 94 3d 69 19 19 bd e2 07 ba 3c 03 f0 bc 3d
       0.072533734 -0.03737775 0.022708837 0.09225466
0001b0 d9 8b 8f bc 13 63 a2 bd 8a e4 3a be 61 1a 02 be
       -0.01752274 -0.07929053 -0.18251243 -0.12705375
0001c0 6d d5 4c be 16 b1 e9 bd 51 30 75 3e c7 56 84 3e
       -0.2000329 -0.114107296 0.23944212 0.25847456
0001d0 ff a9 8b 3e ac e3 10 3d 78 4f 84 3d d6 c2 2b 3e
       0.27278134 0.035373375 0.0646047 0.16773543
0001e0 26 52 8d be a6 82 9f be a6 64 39 be 00 8e 53 bd
       -0.27601737 -0.31154364 -0.181048 -0.051649094
0001f0 2c 5a 0a be f8 80 5c bd 13 fe eb bc 4b 16 59 be
       -0.1351096 -0.05383393 -0.028807675 -0.2119991
000200 fc 38 a0 3c 17 93 2e bd 3b cd 48 bd c3 94 7d be
       0.019558422 -0.042620745 -0.049023848 -0.2476378
000210 54 ba 4f be 5c 19 35 be d9 a0 06 be 17 7e c2 bd
       -0.20285922 -0.17685455 -0.13147296 -0.09496706
000220 9b a3 50 be 33 ee 9c 3a f9 a8 26 bc a7 64 1f bd
       -0.2037491 0.0011972844 -0.010172122 -0.03891435
000230 67 72 4a 3c 80 05 11 be 8f fa 1e be 48 fd e8 bc
       0.012356377 -0.14162254 -0.15525268 -0.028441086
000240 da de 6f bd 8d ab a0 3a 3c 1e 50 bd 7c 4c c0 3d
       -0.058562137 0.0012258157 -0.050810084 0.09389588
000250 09 d6 82 3e 93 d8 61 3e da f4 df 3d 6d 5c c8 3c
       0.2555392 0.22055273 0.109353736 0.024458135
000260 25 f0 95 3d f3 b4 6c be 4c 79 2f be 14 df 00 be
       0.073211946 -0.23115902 -0.17136115 -0.12585098
000270 b4 5b c3 3d 5e 46 04 3e f3 d3 17 3c 37 f1 a1 be
       0.09538975 0.12917468 0.009266841 -0.31629345
000280 2c fe b2 be 1d a1 6a be 48 f6 0d 3e 6d 7c 0d 3e
       -0.34959543 -0.22913022 0.1386348 0.13816996
000290 84 b6 18 3e ee df 35 3e 9f fe 97 bd 64 cd e4 3d
       0.14913374 0.17761204 -0.07421612 0.11171988
0002a0 ef 12 c2 3d 27 fc 10 3d e7 b2 94 3d 67 9d d7 3d
       0.094762675 0.03539672 0.072606854 0.10528069
0002b0 8e 7a f9 bd 78 44 36 be cb 85 71 3e 97 7a 54 3e
       -0.121815786 -0.17799556 0.23586194 0.2074989
0002c0 9d 41 17 3d b3 66 41 bd ac a0 2c be de 10 17 be
       0.036927808 -0.047217082 -0.16858166 -0.14752528
0002d0 5c 32 86 3c 9d 20 0b be 37 5e 3a be 3d 22 bd 3d
       0.016381435 -0.1358666 -0.18200003 0.09235046
0002e0 fb f3 e1 bb 38 15 35 be a0 08 f9 bd d1 e4 27 be
       -0.00689554 -0.17683876 -0.12159848 -0.1639588
0002f0 ca 95 32 be a7 50 79 3d 3a 75 93 bd 64 49 20 bd
       -0.17439952 0.06086793 -0.072000936 -0.03913249
000300 62 c9 b7 3d 1b 7c 19 be 3f 48 ce 3d 23 1e 77 3d
       0.089739576 -0.14988749 0.100723736 0.060331475
000310 4b f1 66 3c ca b6 ec 3d 05 2f e7 bd b5 c5 4f be
       0.014095615 0.11558302 -0.11288265 -0.20290263
000320 59 40 6a be 16 ac 0f 3e 98 5d 02 3e f9 4f 8c 3d
       -0.22876109 0.1403049 0.12731016 0.06851191
000330 00 78 05 3e a1 22 5e be 46 d8 46 be 93 6c e2 3d
       0.13034058 -0.21692897 -0.1941844 0.11055865
000340 51 3b d0 bd c2 aa d6 3c de aa fe 3d 9b ad 36 be
       -0.10167564 0.02620447 0.12434934 -0.17839663
000350 ef 0c e1 bd 65 f3 6e 3c 0d 1a 1d be 05 d5 14 3d
       -0.10988795 0.014584397 -0.15341969 0.036335964
000360 30 fa 5e be 1f d2 03 3a f2 ba 25 be 28 af b5 bd
       -0.21775126 0.0005028564 -0.16184595 -0.08871299
000370 7d cc 71 bd cd f4 3f be ae 33 13 3d 58 90 a8 bc
       -0.059032906 -0.18745728 0.035937957 -0.020576641
000380 bd ab 8d bc 03 9f cf bd 31 ad 98 3c 15 e9 6c be
       -0.017293805 -0.10137751 0.018637272 -0.23135789
000390 8a dd 1a bb 05 9e ba bd fb 51 f1 bd 7a c0 0d 3e
       -0.0023630583 -0.09112171 -0.11783215 0.13842955
0003a0 37 ef 90 3e 36 c9 35 3e d8 ae 51 be d8 90 7a bd
       0.28307506 0.17752537 -0.20476854 -0.06117329
0003b0 04 48 32 be 3d 26 e6 3d 84 d3 88 3e 41 c6 80 3e
       -0.17410284 0.11237762 0.26723874 0.25151256
0003c0 5e da 49 3d 09 02 88 3e e3 08 d3 3c 25 35 9d 3e
       0.049280517 0.26564053 0.025761073 0.3070461
0003d0 6f d0 88 3e f6 b0 04 3e ed 02 26 be ad 30 1c be
       0.26721522 0.1295813 -0.16212054 -0.15252943
0003e0 3b 96 5d bd f4 17 cf bd c5 23 86 bc 47 f9 24 be
       -0.05409835 -0.101119906 -0.016374478 -0.16110717
0003f0 2e 32 95 3e 57 40 a4 3e 83 d4 a5 3d 10 1b 98 bd
       0.29139847 0.32080337 0.08097174 -0.07427037

sequential/conv2d_1/Conv2D f4 [32, 3, 3, 32]
000000 c2 ad 29 3d 3c 4d 8d be 5c d6 93 3d 6f 52 8b 3d
       0.041425474 -0.27597988 0.0721862 0.06802832
000010 79 8a ef bc 74 85 70 be c6 90 3b 3e ee 98 b3 3d
       -0.029240834 -0.23488408 0.18316945 0.087694034
000020 3b 15 9e be 66 b4 6c 3e 58 ce 8d bd c5 5c 25 3e
       -0.30875573 0.23115692 -0.069241226 0.1614867
000030 f9 04 20 be 67 60 8b be ec a1 69 3d c2 da 58 bc
       -0.15626897 -0.27221987 0.057039186 -0.01323575
000040 4d c4 80 bd f4 6f 31 3e 37 ea 55 bd 0f d5 39 be
       -0.062874414 0.17327863 -0.052225318 -0.18147682
000050 04 70 fb 3c 36 2f 21 be 1a 3a 37 bc fe 1e f8 3d
       0.030693062 -0.15740666 -0.011183286 0.12115286
000060 08 35 b4 bd 96 90 f7 3d 6e 42 ca bc 2f 45 82 be
       -0.087991774 0.120881245 -0.02468988 -0.25443408
000070 a0 1e f7 3d 3a 42 e3 3c 2b 55 40 3d c0 12 06 3e
       0.12066388 0.02774154 0.046956223 0.1309309
000080 9a a0 47 3c 4e ac 5e 3d 2f b8 5d bd ee 79 cd bc
       0.0121842865 0.05436354 -0.05413073 -0.025082555
000090 50 a3 76 3e 57 5c 85 be 37 df 9b 3d 77 07 96 3c
       0.24085736 -0.26047012 0.07610934 0.018314106
0000a0 ac 1d e4 bd bd 79 82 3e f1 b2 8a bc a0 c2 8f 3e
       -0.11138472 0.25483504 -0.016931029 0.28078175
0000b0 6c 94 2f be 64 0b 7f bd 51 91 be 3d ee 72 d8 3d
       -0.17146462 -0.062266722 0.09305061 0.10568796
0000c0 0f 6d fc bd 33 fa 73 3d 59 08 06 3e a7 3a 5a 3e
       -0.12325489 0.05956478 0.13089122 0.21311437
0000d0 24 e0 ac 3d c8 5c 0d bd 33 7d 76 bd 65 bf 07 3e
       0.08441189 -0.03451231 -0.060177993 0.13256605
0000e0 9e b4 a4 bb f6 47 90 3d ff e7 5a 3d 25 1e a3 3d
       -0.005026414 0.070449755 0.053443905 0.07964734
0000f0 f2 8f b1 bd a6 3e 3d be 47 a8 ab bd 8b 56 2e 3e
       -0.086700335 -0.1848093 -0.08381706 0.17025201
000100 7d 1c 35 3d 46 77 5d 3e 7c f0 92 bd 9e 10 59 3c
       0.04421662 0.2162753 -0.07174775 0.013248591
000110 72 f0 02 3c 19 78 d8 be c3 c0 db bb fd 0f b6 3d
       0.007991897 -0.42279127 -0.0067063286 0.08889768
000120 b2 2a 21 3d 23 ab 70 be 38 c0 2b bc f0 d1 9a 3c
       0.039347358 -0.23502783 -0.01048284 0.018898934
000130 d4 fa a6 bd 5f 8e f6 3c 82 34 0f 3e c8 27 b2 bd
       -0.081533104 0.030097185 0.13984874 -0.08698994
000140 aa 34 8d be cd 2f 1e 3d 84 b6 0c 3e 68 97 6d 3e
       -0.27579242 0.038619805 0.13741499 0.23202288
000150 cb 65 c8 bd 57 ef 9e be 9e e8 e2 3d ef 40 43 3e
       -0.097850405 -0.31041977 0.110795245 0.19067739
000160 da 0f c4 bc d3 12 b4 bd 66 45 92 bd 7c 8f 64 3d
       -0.02393334 -0.08792653 -0.07142143 0.0558009
000170 f9 15 d5 bb fc c0 ff bd 9a fa 04 be f4 cb 55 3e
       -0.0065028635 -0.12487981 -0.12986222 0.20878583
000180 17 cf 54 3d a6 28 c4 be 57 9f 5d bc c8 8f f3 3c
       0.05195531 -0.38312262 -0.013526759 0.029731646
000190 11 c1 04 be 6c 59 a0 be 3a b1 08 3e 26 63 34 be
       -0.12964274 -0.31318223 0.13348857 -0.17615947
0001a0 bf 68 e7 be 04 3f 90 3e f4 aa 26 bd 62 b8 7d 3e
       -0.45197102 0.28173077 -0.040690377 0.24777368
0001b0 90 f8 93 be cd df 25 bf 39 4b 0e bd 92 08 a8 3d
       -0.28900576 -0.6479462 -0.034739707 0.0820476
0001c0 d2 05 13 3e 91 5a d6 3d 77 33 af 3d a1 68 24 be
       0.14357689 0.10466493 0.08554738 -0.16055538
0001d0 b8 a8 e6 3d 99 05 d5 3b ad 81 44 be c0 d2 c5 bd
       0.11262649 0.0065009114 -0.19190092 -0.09659338
0001e0 04 0a 60 be 08 52 84 3c 86 dd 1f 3e 34 82 15 be
       -0.2187882 0.016152397 0.15611848 -0.1460045
0001f0 a2 75 d4 bb 90 a3 af bc 29 f8 e8 3d 79 49 80 3d
       -0.0064837495 -0.021440297 0.11375458 0.06264014
000200 10 bc a6 3d 93 d7 5e be fa f5 3a bd 4a d7 a7 bd
       0.08141339 -0.21761923 -0.045644738 -0.0819536
000210 84 56 0f 3e 0b 9d d2 be 15 83 9b be 59 44 00 bd
       0.13997847 -0.4113544 -0.30373445 -0.03131518
000220 ad c4 1e be 26 4a 7f bd aa 20 54 3d aa e5 58 3e
       -0.15504713 -0.062326573 0.051788963 0.2118136
000230 03 71 dd be df eb 8f be f0 10 33 be 08 0e 48 3d
       -0.43250284 -0.28109643 -0.1748693 0.048841506
000240 ac 5a 61 be 6b 1e 3a be e4 15 ea 3b 17 22 71 3d
       -0.22007245 -0.18175666 0.007143723 0.0588704
000250 45 d3 48 bd 60 40 b0 3a c9 31 4d be fd 1f 53 be
       -0.049029607 0.001344692 -0.20038523 -0.20617671
000260 08 d5 81 be 6a 37 56 be 0b 18 1b be 94 7c 15 3d
       -0.25357842 -0.20919576 -0.1514589 0.03649576
000270 6a b9 06 bf 23 0f c0 bd 2c c2 c3 bd 46 e7 bb bc
       -0.5262667 -0.09377887 -0.0955852 -0.022937428
000280 e0 0d 41 bd 6b 9d 38 3d 70 c2 8d bd 10 58 2c 3d
       -0.047132373 0.045072 -0.06921852 0.04207617
000290 b6 ce c7 3d c3 4d 8d be fc 1a 34 be a0 00 5e bd
       0.09756224 -0.2759839 -0.17588419 -0.054199815
0002a0 22 37 c7 3d fa cb f9 be 0c 4f 22 be 57 4a 38 be
       0.097273126 -0.48788434 -0.15850466 -0.17997108
0002b0 e9 fa 74 be 64 2d 18 3e a2 c9 05 bd 55 78 3f 3d
       -0.2392384 0.14861065 -0.032662995 0.046745617
0002c0 79 d1 58 be 2d a5 9d bc 3f d5 22 3d 18 ec c3 3d
       -0.21173657 -0.019243801 0.03975415 0.09566516
0002d0 be ac 4f be b0 a8 59 be dd 01 1d 3d 58 e4 14 3d
       -0.2028074 -0.21255755 0.038331855 0.036350578
0002e0 b6 09 02 bb f6 26 bc bc 7e 2a 8e be 00 0b 07 3e
       -0.0019842214 -0.022967797 -0.27766794 0.1318779
0002f0 25 12 64 be b4 a9 be bd 42 a4 4c be 71 96 0f bd
       -0.22272547 -0.09309712 -0.19984534 -0.03505558
000300 94 11 a6 3d 13 fb 9f be 47 78 59 3d fa b2 cf 3c
       0.081088215 -0.31246242 0.05309322 0.025353897
000310 23 97 b1 bc 47 4b 8b bd 4e 59 1a 3d 76 ef 6e be
       -0.021678513 -0.068014674 0.037682824 -0.23333535
000320 39 cc 83 be 13 53 8c 3e 01 55 8a 3d e9 d5 6d 3e
       -0.25741747 0.2740713 0.067544945 0.23226131
000330 f9 99 0f be 2f 3f ee be 91 03 77 3d 24 a3 61 3e
       -0.1402358 -0.4653258 0.060306136 0.2203489
000340 d9 ea 94 3e 1b ff 99 bd be fc a5 3d bd b1 1a be
       0.29085425 -0.07519361 0.08104847 -0.15106864
000350 df 96 40 3e d2 89 08 3e e3 9e 07 be 93 23 8f be
       0.18807553 0.13333824 -0.13244204 -0.27956828
000360 e3 fb cd bd 6f 0c ad bd de d3 60 3e 8e e6 06 be
       -0.10057809 -0.08449637 0.21955821 -0.13173887
000370 ac 8e 11 be f1 4e 5e 3b 24 83 a9 3d 8e 8b 8a be
       -0.14214581 0.0033921564 0.08276966 -0.27059597
000380 b7 32 a5 bd eb d6 03 be 58 26 6a bd 48 42 aa 3c
       -0.08066314 -0.12874953 -0.057165474 0.020783558
000390 a7 b1 33 be 42 5b 3d be 19 55 a4 be 15 39 a4 bd
       -0.17548238 -0.18491843 -0.32096174 -0.080187
0003a0 8b 12 9b 3b ec 14 46 be 81 7e 34 3d 2b e3 85 bd
       0.004732435 -0.19343919 0.044065956 -0.065374695
0003b0 19 c4 91 be 21 4c 8f bd f1 f4 8e bd ab b8 ad 3d
       -0.28469923 -0.06996942 -0.069803126 0.08482488
0003c0 5e 42 a5 bc 61 82 6a be df 8f 8a bc 18 34 c2 3d
       -0.020173248 -0.22901298 -0.016914306 0.09482592
0003d0 08 0d cc bd 44 2a a3 3d 25 51 0a be 43 42 b8 be
       -0.09963423 0.07967046 -0.13507517 -0.35988054
0003e0 99 48 17 be e8 f3 da bd 05 66 31 be eb 98 a3 3d
       -0.14773788 -0.10691053 -0.17324074 0.07988151
0003f0 8a d8 61 be 54 83 0f be 59 82 19 3a ec 9c 5c be
       -0.2205526 -0.14014941 0.000585591 -0.21544236

sequential/conv2d_2/Conv2D f4 [32, 3, 3, 32]
000000 a2 3c ee 3d fd 70 43 be 6a ea 5a be 80 54 b8 bd
       0.116326585 -0.1908607 -0.21378484 -0.09000492
000010 ae f6 41 be 9e ea c9 3d a5 fd 74 bd b7 f7 ba 3d
       -0.18941757 0.09859203 -0.059812207 0.09129279
000020 c3 de 85 be ce 91 20 be 6a ac 82 bd f4 ad 90 3d
       -0.26146516 -0.1568062 -0.063805416 0.07064429
000030 c7 8a d7 bc d6 55 19 3c 25 a3 09 3e db 1a 34 3c
       -0.026311291 0.009358844 0.13441141 0.010992731
000040 38 56 0a be 66 1a b2 be 2b 6f a1 be 53 26 80 be
       -0.13509452 -0.34785765 -0.31530127 -0.2502924
000050 01 7f cb 3d c7 d4 b0 bd c5 c1 bc bd ef a5 4f be
       0.099363334 -0.08634334 -0.09216646 -0.20278142
000060 4d 16 b1 bd 18 ba a1 be 5f 24 96 bd 8e c0 36 3d
       -0.08646832 -0.3158729 -0.07331156 0.04461723
000070 a9 c5 08 be 7e a2 2e be 99 a0 08 be e2 dc 55 bc
       -0.13356651 -0.17054173 -0.13342513 -0.013053151
000080 f2 07 a3 3c dc 76 ff bc a3 43 ae bd 4f 20 20 be
       0.01990125 -0.031184606 -0.085089944 -0.15637325
000090 7e 7c d0 3b f5 f0 e4 3c 7d bc 03 be 46 6f f3 3d
       0.006362497 0.027946929 -0.12864871 0.11886458
0000a0 d2 71 79 be c1 f1 d8 bc 08 6d 68 3d 5e 6f 97 3e
       -0.24359825 -0.026482465 0.056744605 0.29577154
0000b0 dd fa 60 3c 3a be 6d bd 9c c5 85 bd a9 97 c9 3b
       0.0137316855 -0.058042742 -0.065318316 0.0061521125
0000c0 0a 3f 1e bc b2 99 8c bd 96 c9 4a be 78 10 d6 bd
       -0.009658584 -0.068652526 -0.19803461 -0.1045236
0000d0 48 68 8b bd 08 82 98 bd 7d e5 1c bd 32 ce fa bc
       -0.068069994 -0.074466765 -0.038304795 -0.0306159
0000e0 d6 b8 d8 bd 77 4b 8f be cf c8 f8 3c 48 f3 0a 3d
       -0.1058213 -0.27987263 0.03036919 0.033923417
0000f0 2e e9 42 3c aa c1 1f 3c a5 ed 4a be 79 a2 fc 3c
       0.011896415 0.009750763 -0.19817217 0.030839192
000100 e8 31 03 3d 7e 7e d9 bd a6 36 87 be 0a d1 44 bd
       0.032030016 -0.106198296 -0.2640888 -0.048050918
000110 2c c8 f5 3c 20 6f 1f 3e 77 e8 c8 3c ff 45 64 bc
       0.030002676 0.15569735 0.02452491 -0.013932704
000120 42 99 e1 3c 05 c6 06 be f3 00 39 3d 1d 98 88 3d
       0.0275389 -0.13161476 0.04516692 0.06669638
000130 a5 0f 78 3d 6d 9b 6c bd 04 ef 71 3d 27 fd f8 bd
       0.060561795 -0.057765413 0.059065834 -0.1215766
000140 c8 3d a4 bb 1f 86 c8 ba 14 2e 79 be 81 5f 26 be
       -0.0050122477 -0.001529876 -0.24333984 -0.1624737
000150 9f 25 16 bd 63 4e 96 bd d2 7c 45 bd 12 88 d7 bd
       -0.036656972 -0.0733917 -0.04821474 -0.10524
000160 de b4 11 bd 36 af 80 be cc 47 f7 bc 9e fe dd 3d
       -0.03557288 -0.25133675 -0.030185603 0.1083958
000170 4f 20 30 3d 3e 38 8d 3d 5c 18 24 be 22 cd 0e 3c
       0.042999562 0.06895493 -0.16024917 0.0087159
000180 8a 31 ed 3c ee db aa bd 74 74 0a be 5c 92 72 be
       0.028954286 -0.083427295 -0.13520986 -0.23688644
000190 f6 25 59 be b9 d4 65 3e b1 d2 92 bd 0a 9d 27 3d
       -0.21205887 0.22444429 -0.071690924 0.04092125
0001a0 e3 77 26 3c 44 9f c5 be 12 0f 1b be d0 06 4c 3e
       0.010160419 -0.38598073 -0.15142468 0.19924474
0001b0 5f 95 65 3e 6c d7 92 bd 20 9d 5c 3d 39 50 93 be
       0.22420262 -0.07169995 0.053860784 -0.28772143
0001c0 aa 22 0f 3c 9f be a7 3d 99 9d 8c be 10 bb 67 be
       0.008736292 0.08190655 -0.27463987 -0.22629952
0001d0 45 79 82 3d 3f 81 e8 be 1a 96 9f bc ca 6f be bc
       0.063707866 -0.45411107 -0.019480754 -0.023246665
0001e0 a3 9b 0f be 82 53 aa be 32 1f ac bd 76 9d 06 3e
       -0.14024214 -0.33266836 -0.084043875 0.13146004
0001f0 5a fc 96 bd 9f 65 1f 3e a0 10 4d 3d 72 7a 50 3d
       -0.07372351 0.15566109 0.050064683 0.050898023
000200 7b aa 72 3e 45 a9 32 3e c1 d5 19 bc ec de 5b be
       0.23697846 0.17447384 -0.009389342 -0.21471757
000210 01 70 e1 bc 2a 60 01 3c 2b 5d 91 bb 6f f0 49 bc
       -0.027519228 0.007896462 -0.0044361553 -0.01232539
000220 63 5a 0a bd a3 18 a3 be 05 41 95 3d fe d3 3d 3e
       -0.033777606 -0.31854734 0.07287792 0.185379
000230 9f 5f 35 3b 43 37 00 3e 54 60 0d bd 5a 91 ef 3d
       0.0027675403 0.1252108 -0.034515694 0.116976455
000240 b8 c8 2f 3e 53 68 94 3d c1 83 f2 bd ff de 51 3e
       0.17166412 0.07246461 -0.11841536 0.20495223
000250 be cd a7 bd ab a5 df bd 47 05 a5 3c e7 2f 3b 3e
       -0.08193539 -0.109202705 0.020144118 0.18279992
000260 48 57 45 3e e1 63 57 be fa de 52 bd 36 40 f8 bd
       0.19271576 -0.21034195 -0.05148218 -0.12121622
000270 e8 52 1a 3d 00 3b b4 3d 3a 41 6a 3d 5f 1b d3 3d
       0.03767672 0.08800316 0.05719111 0.10307955
000280 0c ed 21 3e 71 ec f0 bc 75 ba 96 bc 7f 8d 4c bc
       0.15813082 -0.029409619 -0.018399457 -0.012484907
000290 f1 c2 d9 bc 34 8f 90 3e ce 74 80 bc f6 06 9b bd
       -0.026582213 0.28234255 -0.015680697 -0.07569687
0002a0 26 d4 d2 bc 1e f9 82 be 60 4f 56 bd 7e a6 06 3e
       -0.025735926 -0.25580686 -0.05232179 0.13149449
0002b0 b5 23 79 3e b5 a0 13 bd fd 81 f9 bd 79 02 7c 3b
       0.24330027 -0.036041934 -0.121829964 0.0038453622
0002c0 e0 06 ff 3d db 04 d4 3d d7 cb 58 be a5 aa 00 3e
       0.12452483 0.103524886 -0.21171509 0.12565096
0002d0 29 16 ad bd 14 c3 35 3d 20 a5 bf 3a 00 5d 51 bc
       -0.08451492 0.044375494 0.0014621355 -0.012778521
0002e0 52 fe f3 3d 12 20 84 be 8c 17 49 bd a9 c7 07 3d
       0.11913742 -0.25805718 -0.04909472 0.033149395
0002f0 8c 34 f9 bd a2 f1 4c 3e 29 6d 3f 3d df d5 89 3d
       -0.12168226 0.2001405 0.046734963 0.06730246
000300 82 95 2e be 69 b2 07 3e 05 1c b6 bc 62 ff 78 3e
       -0.1704922 0.13251652 -0.022230158 0.24316171
000310 a6 5f 06 be 32 56 47 3e e7 8f 96 bc 05 62 0e be
       -0.13122424 0.19466475 -0.018379165 -0.13904579
000320 2f 2b c0 3d 0d 54 69 be 50 06 26 bc 9c 1d 5b 3e
       0.093832366 -0.22785969 -0.010133341 0.21398014
000330 cb a2 70 3e bf 78 9b 3b 53 5d 1e bd 7d 79 06 be
       0.234996 0.0047446187 -0.03866322 -0.13132282
000340 16 97 1f 3e fc bd 23 3e 0c 92 4c be 1b 90 0f 3d
       0.15584978 0.15990442 -0.19977587 0.03504954
000350 6b bf 3d 3d d4 d1 b7 be db fc 36 be 88 01 20 3e
       0.04632513 -0.35902274 -0.17869894 0.15625584
000360 08 08 21 be fe 78 51 be cc 9a e4 bc 43 4a 47 bd
       -0.1572572 -0.20456311 -0.027905844 -0.048654806
000370 2c f4 a6 3d 75 be b9 3d 2a bd bd bc 6f 7a ba 3e
       0.08152041 0.0906953 -0.02316149 0.36421534
000380 a1 80 b7 3e 21 e3 60 bd 42 cf 96 bd 9b 21 8a 3e
       0.35840324 -0.054904107 -0.0736375 0.26978764
000390 d2 f5 ab bc d0 18 b9 3d 69 86 10 3d 30 d7 64 be
       -0.02099124 0.09037936 0.035284434 -0.22347713
0003a0 cb 4a 7b bb 68 59 cb bd 74 bf a6 3d bf 79 5a 3e
       -0.003834414 -0.09929162 0.081419855 0.21335505
0003b0 fb 36 3a 3e 86 be 1b 3e 93 30 40 bb e6 14 63 3e
       0.18185036 0.15209398 -0.0029325827 0.22175941
0003c0 b5 9b 9d 3d f7 04 e3 3c 44 c7 4b be 25 ac 57 3e
       0.076957144 0.027712328 -0.19900233 0.21061762
0003d0 74 9e 82 3d 47 d5 53 3e 07 7d 9f bd 7f a1 87 3d
       0.06377879 0.20686828 -0.07787519 0.066226
0003e0 68 5b 52 3e 46 34 40 be 56 d3 0d be 8a 04 ed 3d
       0.20542681 -0.1876994 -0.1385015 0.115731314
0003f0 c7 f2 06 bd 65 8b 06 bd e8 58 c7 3d 6b e4 5c 3d
       -0.032946374 -0.03284778 0.097337544 0.053928774

sequential/dense/BiasAdd/ReadVariableOp f4 [32]
000000 77 f8 0c bc d0 fd 80 3d 7c 21 af bd 24 c6 c4 bb
       -0.0086041605 0.06298411 -0.085513085 -0.0060050655
000010 bf 9d c4 bb f5 da 75 bc 4a a3 92 bb 18 4f bb bb
       -0.00600025 -0.015005817 -0.004475032 -0.005716216
000020 d3 7c 2c bd 70 d9 96 3e 4e 85 bc bc 50 c3 c4 bb
       -0.04211123 0.29462767 -0.023012783 -0.0060047284
000030 ff b8 1b bd 78 49 f5 39 94 35 20 3e 7b 87 05 bd
       -0.038018223 0.0004678478 0.15645438 -0.032599907
000040 77 d5 1e 3c 9f c2 c4 bb 52 7b 72 bc b6 30 32 bc
       0.009694449 -0.006004646 -0.01479991 -0.010875871
000050 9d 14 37 bc 7f 8e 0a be 1a e3 a6 bb a1 ae c4 bb
       -0.011174348 -0.1353092 -0.0050929906 -0.0060022627
000060 d5 c9 36 bc 56 1e f2 bb 76 36 8f bb 64 59 61 bc
       -0.011156519 -0.00738887 -0.004370506 -0.013754223
000070 3e 15 c4 bb 00 dc 84 3e 61 1b 13 bc f9 3e c4 bd
       -0.0059839776 0.25949097 -0.008978696 -0.095823236

sequential/dense_2/BiasAdd/ReadVariableOp f4 [5]
000000 cb 86 62 3d b8 97 9c bf 72 09 41 3f b2 17 7a bf
       0.05530433 -1.2233801 0.7540504 -0.97692406
000010 cd c0 de bf
       -1.7402588

sequential/dense_1/BiasAdd/ReadVariableOp f4 [16]
000000 67 82 f3 be 86 c3 87 3d 01 8a cb 3e bb af a6 bd
       -0.47560427 0.0662909 0.39753726 -0.08138987
000010 a8 6c 8d 3d 5e 54 4b 3c 36 77 c1 be 19 69 84 be
       0.0690549 0.012410251 -0.37786263 -0.25861433
000020 54 ec 41 3f de e7 50 3b a1 9b da bd 5a 31 67 3f
       0.75751233 0.0031876485 -0.10674215 0.9030968
000030 59 f0 0c bf 4f 42 26 be c4 d5 7e bb 82 6f 79 3f
       -0.5505424 -0.16236232 -0.0038884738 0.9743577

sequential/dense/MatMul f4 [32, 6272]
000000 8e ae 2d 3c e9 fa 9d bc 61 82 01 bd 1e 6a e3 bc
       0.010600699 -0.019284682 -0.03161848 -0.027760562
000010 9d 76 c4 3c c8 ca c1 bc 0c c4 fc 3b ec 36 9d 3b
       0.02398234 -0.023656264 0.0077138003 0.004797807
000020 66 22 29 3c 18 3e 62 3b b0 6a 8d bc fa b3 ac bc
       0.010323143 0.0034521874 -0.017262787 -0.021081913
000030 49 92 02 bd 4b 6c 95 3c a7 f4 bf 3b e7 e1 aa 3b
       -0.03187779 0.018240115 0.0058580223 0.005214918
000040 25 62 e4 3c 55 8e d6 3c c3 4b e1 bc 05 59 eb 3b
       0.02787883 0.026190916 -0.027501946 0.007182243
000050 f2 38 c8 bc 1f 28 72 3c 3e 54 79 bc 04 9c a3 3b
       -0.024441216 0.014780073 -0.015217839 0.0049929637
000060 43 0c ed bc f4 24 c4 bc 04 17 86 bb 36 44 00 bc
       -0.02893651 -0.023943402 -0.004092099 -0.007828763
000070 7a 70 e0 bc 89 71 f3 bc f1 9b 81 3c 2d 1e 89 bc
       -0.027397383 -0.029717224 0.015821429 -0.016738022
000080 28 bc 7a bc 88 66 2c bb 1a d0 a7 3c 66 40 68 bb
       -0.015303649 -0.002630623 0.020484973 -0.0035438775
000090 18 85 02 3b 59 fb c2 bc a7 89 83 3c e7 03 e1 bb
       0.0019915756 -0.023801493 0.016056849 -0.0068669203
0000a0 db 12 a5 3c 8b 2e a6 3c aa ec 2d 3c 54 f4 c3 3b
       0.020150593 0.020285865 0.010615507 0.005980054
0000b0 21 03 39 bc 24 c5 cc bb 64 be 99 bc 30 a3 e0 bb
       -0.01129225 -0.006249087 -0.018767543 -0.006855391
0000c0 a6 25 e3 bc 97 8b 8f 3c ae 56 41 bc e3 a7 33 bc
       -0.027727913 0.017522616 -0.011800451 -0.01096532
0000d0 c1 a6 da bc 58 83 50 ba 30 ca 0e bc 8a 37 28 bc
       -0.026690843 -0.0007954142 -0.008715197 -0.010267148
0000e0 09 62 90 3c e8 2c f5 bc 9e f0 9c bc d8 8d 13 3b
       0.017624872 -0.02992864 -0.019157704 0.0022514965
0000f0 ca 17 27 3c d1 57 83 bc 2a c5 35 bc dc ff b1 bb
       0.010198543 -0.016033085 -0.011094371 -0.005432112
000100 bc fe 04 bc 4e 88 c2 bc b4 f3 dc bc 30 51 9f 3c
       -0.008117374 -0.023746636 -0.026971675 0.019447893
000110 00 a2 ab bb a7 9f 68 bc c6 27 57 3c 93 a4 c3 3c
       -0.0052378178 -0.01419822 0.013132041 0.023882186
000120 fe 63 2c bc a5 30 7c bc d0 96 ea ba 98 8e 6b bb
       -0.010521887 -0.015392457 -0.0017897729 -0.0035943147
000130 23 15 1c bd b5 6a 7d bc be f3 9d bc d8 d3 4c 3c
       -0.038106095 -0.0154673355 -0.019281264 0.012501679
000140 0c 2d 8a bc 30 44 d9 3a ab 92 a8 3c 34 fc ed bc
       -0.016867183 0.0016576108 0.02057775 -0.029050924
000150 0f d5 bc 3c 5a 15 2e bb 40 78 61 bb 0b 56 ef 3c
       0.023050813 -0.002656302 -0.003440395 0.029215833
000160 d5 32 f6 3c 37 cb d2 3c 53 60 bd bc f7 0f 83 3c
       0.030053535 0.025731666 -0.02311722 0.015998824
000170 43 b9 dd 3c fc 54 8e bb 66 a1 1d bd 2a 4a 4c 3c
       0.027065879 -0.004343627 -0.038484 0.012468854
000180 11 a8 1f bd 00 c8 9c bb 10 14 9c 3c e8 97 14 bc
       -0.03897864 -0.004784584 0.019052535 -0.00906942
000190 16 85 11 bc 5a fe 8e 3c 1f 56 72 bc 36 d7 d3 bb
       -0.008881828 0.017455269 -0.014791041 -0.006464864
0001a0 e7 25 6f 3b 6f 53 eb bc 6c 98 74 bc 1d a5 b7 3c
       0.0036491097 -0.028726308 -0.014928918 0.0224176
0001b0 fe 0e 99 bc 00 b5 85 b8 50 ed 4f bb 22 fd 4e bc
       -0.018683907 -6.375648e-05 -0.0031727143 -0.012633594
0001c0 63 9b dc 3c e0 e1 cd ba f2 65 0b bc 3f 3d 12 bd
       0.026929563 -0.0015707575 -0.008508192 -0.03570294
0001d0 70 09 e5 ba cb 72 73 3c 80 2a 88 bc d7 23 f8 3c
       -0.0017474126 0.014858912 -0.016621828 0.030290527
0001e0 e0 f6 55 ba f3 4f a2 bc 54 74 7b bb 58 a4 a1 3c
       -0.00081620924 -0.019813513 -0.0038368898 0.019731686
0001f0 0d d7 3d 3c e5 26 f8 3c 37 c9 64 3b 29 33 94 bc
       0.011586917 0.030291984 0.0034909972 -0.018090801
000200 c2 6f c7 bc 29 a3 f0 3c 01 77 b5 3c 43 8f b5 bc
       -0.024345282 0.029374676 0.022151472 -0.02216304
000210 1a 69 ac bc 31 9b 3c bb 3f 96 af 3c f7 ac 01 bd
       -0.02104621 -0.0028779025 0.021433948 -0.031659093
000220 79 f1 70 3c b5 41 af 3c 60 93 89 bc cd 76 89 3c
       0.014706009 0.021393636 -0.016793907 0.016780281
000230 72 ea 3a bc a0 48 5a ba 86 0b e9 bb 06 a8 19 3c
       -0.011408435 -0.0008326862 -0.0071119694 0.009378439
000240 7c 9f 00 bc 9c 2d 88 3b b6 04 c5 3c a9 46 5b 3c
       -0.007850524 0.0041558277 0.024050098 0.013383546
000250 39 a6 bc bc 23 95 e7 bb 6c 7e d3 3b 80 d1 8a ba
       -0.02302848 -0.007067339 0.0064542796 -0.0010591
000260 0b 16 85 bc d0 5e 7f bc f7 da b9 bc e1 ac 10 bd
       -0.016245862 -0.01558657 -0.022687418 -0.03532112
000270 de 34 a4 3c 53 d0 a5 3c 7a 34 14 bd d7 fc 20 bc
       0.02004474 0.020240938 -0.036182858 -0.009825907
000280 46 e8 ae bc 17 c8 8e 3c 1a 8e 15 bd a7 e2 83 bc
       -0.021350991 0.017429395 -0.03651247 -0.016099287
000290 3d 54 b6 3c 8f f6 07 3c 2e 64 ac bc b0 9f b2 3a
       0.022256965 0.00829853 -0.021043863 0.0013627913
0002a0 22 70 90 bc be 37 cd bc a4 7c d9 3b 69 b2 b6 bc
       -0.017631594 -0.025050994 0.006637173 -0.02230187
0002b0 b7 3d c7 3c 81 86 7f bc 17 35 af bb 29 c7 9a 3b
       0.02432142 -0.015596033 -0.005346905 0.004723449
0002c0 80 c8 a1 bb 4d 2e e5 3c 55 f5 d7 bc ab 86 03 bc
       -0.0049372315 0.02797618 -0.0263621 -0.008027713
0002d0 8e 23 b3 bc 1d 76 66 bc 80 d3 0b bc de 48 15 3c
       -0.02186754 -0.014066246 -0.008534312 0.009111611
0002e0 d6 7b 24 bc 53 ab 41 bc 54 ce 9d 3c 4b af 60 bc
       -0.01003929 -0.011820632 0.019263424 -0.013713668
0002f0 a7 a9 64 3c a1 e4 a8 3c 5c 05 df 3b fa 56 23 3c
       0.013956464 0.020616831 0.006806059 0.009969467
000300 22 a1 b6 3b ec 41 a4 3b 4c 7b 0e bc 4a 61 ab bc
       0.0055734077 0.0050127413 -0.008696388 -0.020920414
000310 c9 26 93 3c fd 00 d2 ba 21 4b f8 3c 01 78 56 3c
       0.01796283 -0.0016022023 0.030309262 0.013090135
000320 70 69 5b 3b 98 8f f7 bb dc e7 38 bc 22 2b 78 3c
       0.0033479594 -0.0075549595 -0.011285748 0.015147002
000330 32 92 d1 bb 34 ef af 3b e9 14 14 bd 07 a6 3e 3c
       -0.0063956017 0.0053690914 -0.036152754 0.011636264
000340 18 2f 3f 3b 22 60 56 3c 96 74 90 3b 35 9f 41 3c
       0.0029172357 0.013084443 0.0044084294 0.011817743
000350 a3 22 07 bc 3c 70 ea bc be 4c 31 3c a0 56 da ba
       -0.008248004 -0.02861797 0.010821519 -0.0016657896
000360 f4 4f 3b bc 10 4f 82 3c b0 b0 af bc 5d 4a 21 bc
       -0.0114326365 0.01590684 -0.021446556 -0.00984439
000370 2e 38 92 bc 66 1a 8f bc eb b1 9d bc b4 b3 a1 3b
       -0.017849054 -0.017468642 -0.019249877 0.0049347524
000380 2f 6b 05 3c 92 0f f9 bc c1 95 de 3b 6f 50 8a bc
       0.00814323 -0.030402932 0.0067927544 -0.016884057
000390 0d fd e4 3c 2b d1 91 bb b7 2c b0 3c 45 43 64 b9
       0.027952695 -0.0044499836 0.021505697 -0.00021768834
0003a0 3e 52 04 bd 91 42 c1 bc 15 74 c2 bc dc 24 9e 3c
       -0.032304995 -0.023591312 -0.023736993 0.019304685
0003b0 26 32 51 bc d8 07 94 bc 06 89 82 bc 67 9c 49 3c
       -0.012768304 -0.018070146 -0.015934478 0.012305356
0003c0 00 8a 1d bb ba b0 37 bc 4b ab c8 bb 31 66 1d bd
       -0.0024038553 -0.0112115685 -0.0061239353 -0.038427535
0003d0 ff b7 a1 bc 2d 8d 2d 3c c8 56 a7 bb 4c 40 f6 bc
       -0.019741056 0.010592741 -0.0051067807 -0.030059956
0003e0 f5 b2 e2 3c de d2 c7 3b 8d 87 5b bb c5 b2 90 bc
       0.027673224 0.0060981354 -0.0033497543 -0.017663369
0003f0 20 73 c4 bc c0 9a a2 bc 79 0c 4e bc 0d a4 b5 3c
       -0.023980677 -0.019849181 -0.012576216 0.022172952

sequential/dense_1/MatMul f4 [16, 32]
000000 49 66 af 3e 5a 0e 9a 3b 56 8d 4c be 94 e7 52 3e
       0.34257725 0.004701418 -0.1997579 0.20596153
000010 27 8d 30 3e aa 50 02 3f 94 7a cc 3d bd 2b 37 bc
       0.17241345 0.50904334 0.099843174 -0.011179862
000020 3a 21 5e 3e 02 87 88 be 64 2e 2a 3b 6b af 3c 3e
       0.21692362 -0.26665503 0.0025967592 0.18426292
000030 dc a5 f0 3d 6a 95 b9 3e 23 0e 9b bb 5b 86 c5 3d
       0.11750385 0.36246806 -0.00473191 0.09644767
000040 5f ab 4c bd be 98 67 be 40 5a cb bc df 69 9b be
       -0.04996812 -0.2261686 -0.024823308 -0.3035421
000050 8b 2c 83 3e dc 73 32 be 0c 1b 09 3b 50 66 ab 3e
       0.2561992 -0.1742701 0.0020920662 0.33476496
000060 01 ac 46 be 64 bd f8 3d a0 e6 92 be c0 11 4c bc
       -0.19401552 0.121454984 -0.28691578 -0.012455404
000070 2f fa 38 3e 70 e4 cb be ed 9d 57 be 98 02 8f be
       0.18064187 -0.3982272 -0.21056338 -0.27931666
000080 78 52 ee 3c 5b d8 47 3f d1 4b 9e bd 80 a7 f6 bd
       0.029092059 0.7806451 -0.077293046 -0.12043667
000090 85 f8 8a be e4 91 ab be e5 b3 2b be 40 c0 5c be
       -0.2714273 -0.33509743 -0.16767843 -0.21557713
0000a0 05 8f 05 be 69 2c e1 3d e1 c4 71 be ab 26 7c bc
       -0.13042839 0.10994799 -0.2361026 -0.015390079
0000b0 eb be 48 3e 1d df ba be b5 79 9f 3d 8f ef 9c 3e
       0.1960408 -0.36498347 0.07786886 0.3065152
0000c0 5e 01 4e 3f 24 f5 d2 3d 04 20 37 3d c0 e3 4d be
       0.80470836 0.10300663 0.044708267 -0.20106411
0000d0 26 52 64 3e 92 5a 62 be 22 64 3e 3e 08 75 68 3d
       0.22296962 -0.22104862 0.18592885 0.056752235
0000e0 8f a3 89 3e 26 73 35 3e 80 0a 88 3d 20 91 9f bc
       0.26882598 0.17719707 0.06642628 -0.01947838
0000f0 a8 a2 a0 be 87 0e 09 3d 38 cd 25 3e 74 13 1b be
       -0.31374097 0.03346112 0.16191566 -0.1514414
000100 d0 1f a2 3d 1a b8 97 be 88 86 4e be 59 cd 33 bd
       0.07916224 -0.29632646 -0.20168507 -0.043897007
000110 9b 12 93 3e bc 11 f1 3e d2 0e 2d 3d 85 74 8b 3e
       0.28725132 0.47083843 0.042250462 0.27237335
000120 ed eb 82 bc 15 0c d8 be 13 49 0f 3e 4c 07 6e bd
       -0.015981639 -0.42196718 0.1399272 -0.058112428
000130 05 b5 51 be 3e 59 d2 3e 0c fb 93 be 78 a7 99 3e
       -0.2047921 0.4108371 -0.2890247 0.3001058
000140 77 6e 7e be de f6 25 3d 6c 16 4f bd 0c 3d a5 3b
       -0.24846826 0.040518634 -0.050558493 0.0050426777
000150 e2 64 ac 3e da c7 54 be 1b fe 4e be 4e 24 f8 bd
       0.33670717 -0.20779362 -0.20214121 -0.121162996
000160 bc d9 a7 3d e2 d6 5d be 32 a3 5e 3e 0e d9 3d 3e
       0.081958264 -0.21664003 0.21741942 0.18539831
000170 ce c8 7e 3e 3e 00 ad be 5b e9 9e be 87 20 8c be
       0.24881288 -0.33789247 -0.3103741 -0.27368566
000180 a0 5a cd 3c 97 a9 7d 3d 97 48 e4 be 6d d4 db 3c
       0.025067627 0.06192931 -0.44586632 0.026834691
000190 90 ad 6f 3e 96 4d e3 bc c9 37 b5 be 3e a6 bd bd
       0.23406053 -0.027746957 -0.35394123 -0.09260224
0001a0 69 c6 8b be 1a b7 14 3f cc 9a 71 3c 04 6e df 3d
       -0.27299812 0.5809189 0.014746379 0.10909656
0001b0 77 b9 23 be 64 e3 d0 bd bd b5 dd 3e b9 72 73 be
       -0.15988718 -0.10199621 0.43302718 -0.23774232
0001c0 bf 4f 51 3d 9d 8e a1 be 4c f1 81 3e 7e f9 b8 3e
       0.051101442 -0.31554118 0.25379407 0.36127847
0001d0 e1 2c 55 be 19 ee af be 9d a2 a2 be 4f ef a4 3e
       -0.20817901 -0.34361342 -0.3176469 0.32213828
0001e0 bd 4e 9e 3e 30 a0 b7 3d 37 08 ae 3e f2 04 03 be
       0.30919448 0.089661 0.33990642 -0.12794855
0001f0 25 e5 ad be ae 14 1a 3e ab 90 d9 bd aa 20 00 bf
       -0.33963886 0.15046951 -0.10623296 -0.5004984
000200 90 3d ba bd a8 2d 79 be 68 ad 26 3f 96 2b b6 3d
       -0.09093773 -0.24333823 0.65108347 0.08895032
000210 ac 14 d1 bd 30 69 77 be 15 76 b3 3d e1 78 0d 3e
       -0.10209021 -0.2416122 0.08762757 0.13815643
000220 03 32 4a be bb ea 3b be 68 0d b9 bd c6 d3 4f be
       -0.1974564 -0.18351261 -0.0903576 -0.20295629
000230 4c e2 81 3e 59 30 95 be 20 78 46 be a6 f0 44 3e
       0.25367963 -0.2913845 -0.19381762 0.19232425
000240 04 88 80 be 41 2d a0 be 63 87 8a be 74 aa 60 3e
       -0.25103772 -0.31284526 -0.27056417 0.21940023
000250 d3 60 9f be 4d 40 41 be 40 a0 35 3e 4e 73 30 3e
       -0.3112856 -0.18872185 0.17736912 0.17231485
000260 00 82 51 3c 52 65 1c 3e 8e 53 97 3e 35 d1 a8 3e
       0.012787342 0.15273026 0.29555935 0.32972112
000270 3e 67 4e 3e c6 ab 3e 3d aa 50 30 3e 29 c1 2c 3f
       0.20156571 0.046550535 0.17218271 0.6748224
000280 5e a9 71 3e 98 22 8f be bc e3 2b 3f a9 07 84 3e
       0.23599765 -0.2795608 0.6714437 0.25787094
000290 8a d8 8f 3e 42 62 2d 3d bf 29 ed 3d e8 dc 30 bc
       0.28094894 0.042330034 0.11580228 -0.010794856
0002a0 42 31 1b be 44 71 9a bd 2c 3e 99 3d 10 48 43 3e
       -0.15155509 -0.07541135 0.074825615 0.19070458
0002b0 6a 73 96 3e bb 48 50 3d c5 e2 af bd 0f 61 0c be
       0.2938493 0.05085061 -0.08588175 -0.137089
0002c0 73 03 b0 be 0d 60 99 3d 8a 13 28 be 58 e7 0d be
       -0.34377632 0.07489023 -0.16413704 -0.13857782
0002d0 e4 c9 1b 3e 1c 19 21 be c2 bc 77 3d ad c7 7a bd
       0.15213734 -0.15732235 0.060482748 -0.061225582
0002e0 f5 1f a1 3e eb ac 01 be fa 5c 88 3e e8 60 2a 3d
       0.31469694 -0.12663619 0.26633435 0.041596323
0002f0 00 88 b4 b9 b5 08 ef 3c ea f9 79 be a6 3d 4e 3f
       -0.00034433603 0.029178957 -0.24411741 0.8056282
000300 47 f4 a3 be d2 00 c1 be d8 4b 8c be 5e 14 d6 bd
       -0.32022306 -0.37695938 -0.27401614 -0.104531035
000310 69 6c 9c 3e 23 90 8b 3e 10 b0 e9 3c e0 4c 0f 3e
       0.3055146 0.27258405 0.028526336 0.13994169
000320 a0 69 7d 3e d9 e9 88 3e c3 34 03 be 1e a1 49 3e
       0.24747324 0.26740912 -0.12813096 0.19690368
000330 1a d8 13 be 0a ec 74 3e 94 cc 59 3e e7 b4 bc bd
       -0.14437905 0.23918167 0.21269447 -0.09214192
000340 30 33 9b be 65 02 9b 3e 30 a7 90 bd f0 d1 04 3e
       -0.3031249 0.30275264 -0.070631385 0.1297071
000350 e1 3a 8f be a0 84 bb 3e 0c be 8c 3e 4a 8b 30 3d
       -0.2797461 0.36624622 0.27488744 0.043101586
000360 f5 49 38 be e8 a6 20 bd da ee 96 be 00 0b 29 3b
       -0.17996962 -0.039221674 -0.29479104 0.002579391
000370 b4 1c 56 3e 25 1f 13 bd 00 8d 39 bc 1f de af be
       0.20909387 -0.035918374 -0.011325121 -0.34349152
000380 e6 05 7e 3e 10 50 01 be 85 78 d1 be 14 e6 21 be
       0.24806938 -0.12628198 -0.40912262 -0.15810424
000390 b0 9a 0c 3d b6 5c fe bd 32 48 dc be 91 0b 46 3d
       0.03432721 -0.12420027 -0.4302383 0.048350874
0003a0 9a 90 8c be 9e 3c 00 3f 22 27 af 3e 3e 4a 36 3e
       -0.27454072 0.50092494 0.34209543 0.17801759
0003b0 c2 9e 30 3e 6f 33 8f be 7f e4 b7 3e 06 e2 9c be
       0.17248061 -0.27968928 0.35916516 -0.30641192
0003c0 5a fe 85 be 9c 7a e9 3d 41 b1 67 3e 3b e7 48 3d
       -0.26170617 0.11400339 0.22626211 0.049048644
0003d0 05 98 a2 be af 4b 42 be bb 28 0b 3e 96 e3 ab 3e
       -0.31756607 -0.18974183 0.13589756 0.33572072
0003e0 a2 28 07 3e bb c2 58 3c a5 1b 97 be 95 e1 95 3e
       0.13199094 0.013230021 -0.2951328 0.29273668
0003f0 b0 1c a8 bd dd 34 eb 3d b1 74 81 be f8 e4 9b be
       -0.08208597 0.11484692 -0.2528434 -0.30448127

sequential/dense_2/MatMul f4 [5, 16]
000000 2f 77 a2 be df 58 1e bf 45 31 04 bf 78 0b 5a be
       -0.31731555 -0.61854357 -0.5163768 -0.21293437
000010 89 2b 8c 3e d5 b1 29 3e 0d ad 66 bf cc 3f 71 be
       0.27376965 0.16571744 -0.90107805 -0.23559493
000020 da 1c e5 bf 8e 23 6b bd ec fb 28 bf b4 97 b1 bf
       -1.789943 -0.057406954 -0.660094 -1.3874421
000030 b6 01 b3 be 8a 52 c1 3e 17 a8 71 bc 06 c3 b5 bf
       -0.34962243 0.37758285 -0.014749548 -1.4200141
000040 74 06 fe be d0 87 36 3e 1b c1 da be 0a 71 90 bd
       -0.49614298 0.17825246 -0.42725453 -0.070528105
000050 63 aa 9a bf 3b c5 b6 bf cf b0 24 bf c0 ec e5 be
       -1.2083248 -1.427894 -0.6433229 -0.44907188
000060 43 8e 36 3e a1 7d 21 3e 1a 6d 1c bf 23 19 2b 3e
       0.17827706 0.1577058 -0.61103976 0.16708808
000070 c2 92 bf be 65 5a 9b be e7 1c be be f5 0b 6c be
       -0.37416655 -0.30342403 -0.37131426 -0.23051436
000080 a2 7c 11 bf 74 e1 16 bf 3a a3 4f be de 35 aa bf
       -0.568308 -0.58937764 -0.2027711 -1.3297689
000090 45 bf 0c bf 22 03 b1 bf e8 fa ad 3d 2e 69 5f bf
       -0.54979354 -1.3829081 0.08495122 -0.87269866
0000a0 14 d2 88 bd 6e ad 44 bf c1 79 2f 3f 58 e3 85 bd
       -0.06680694 -0.7682713 0.68545157 -0.06537503
0000b0 e0 55 05 bf b1 ba 4a bf c3 04 90 bf 8b a3 a7 3e
       -0.5208416 -0.7919112 -1.1251453 0.3274196
0000c0 69 bf 8d be 4d 96 12 bd d2 6e 44 bf 7f dd 67 3e
       -0.27685097 -0.03578787 -0.767316 0.22643088
0000d0 19 7a 52 be 56 d6 8c be 71 2e a8 3d b3 d8 c7 3e
       -0.20554389 -0.27507275 0.08211983 0.39032516
0000e0 28 28 3f bf 93 20 42 bf 7d 1e 89 bf 92 2e 3f bf
       -0.7467065 -0.75830954 -1.0712429 -0.74680436
0000f0 b7 af b0 be 61 94 b5 be be e4 f9 3d cd 41 16 bf
       -0.3450906 -0.35464767 0.12201832 -0.58694154
000100 be e6 03 3f 9a bb 45 bf 26 3d f8 3e 3a e1 17 bf
       0.5152396 -0.7723938 0.48484153 -0.59328043
000110 ee 03 15 be 4b 2e 25 bd 59 8a 9d 3d 16 32 f4 be
       -0.1455228 -0.04032735 0.07692403 -0.47694463
000120 41 8a 48 bf f2 f7 b6 3d 85 d7 11 bf b2 dd 03 bf
       -0.7833596 0.089340106 -0.5696948 -0.51510155
000130 c7 e3 0b 3f 4e 1d 1a bf e5 e3 89 be 2e 3f c5 be
       0.54644436 -0.60200965 -0.26931682 -0.38524765
